Assignment1/model/IRLSL2_bestmodel.npy (npy, 1072 bytes, 1 tensors)

array f8 [124, 1]
-1.4537832847089969 -0.47022286086340104 0.13346983436812546 0.43819282523098935 0.4424415793202903 0.5379222398489509 0.13834219444813955 0.7847300601871205
0.9775668414071527 0.2853145212976641 0.20279058074592649 -7.772082130746989 -5.88452693161328 -0.35221334492625245 -0.1474045686270072 -0.15328545943570687
-0.13835516378937646 -0.11864337262560945 -0.29975379844622374 0.016046600110595034 1.0517107397500074 -0.16081083950635272 0.6134348960667632 0.055753886879988473
0.06846896520648765 0.6312310995682667 0.4192525637072677 1.4102465046090276 0.017675087554432416 0.4005512714314182 0.9506313459904299 0.7767278067375661
0.6361376727127604 -7.497205700073202 -1.9974445019453673 -0.1608108419743284 0.016046598974646834 0.12422284985345682 1.108083994259354 1.3145824050901864
-0.8977022864295828 -1.1088862385362557 -0.9734817626096108 -0.46780860728251955 -0.8254939161516082 2.0488884935741325 0.5377207895683135 -0.0970927108713061
-0.9088983126246777 0.15424391410241847 0.6281859584506686 0.3873762651861966 -0.7882922038732605 -0.5025478290515395 -0.11844390049873779 -0.9624047324717422
-0.23782511937850992 -2.180305157397617 0.5346181952909972 -1.2917508310249106 0.9904640946126322 -0.824267604492094 -0.4592468402602143 0.12765838440094932
-0.627872547514086 -0.11663738189150676 -0.010230899094806331 0.14329695614943688 -0.5049749571165095 -0.37734091055783825 -0.1606520668281243 -0.8666589256117736
-0.04324295598241745 -1.2831276417971162 0.3732257716033137 -0.9940156440990517 0.08411375577841143 -1.1274470309671125 -0.2699290339745667 -0.12827573544670495
0.23987316923475363 0.37587673500789787 0.4322978391678014 1.2683243407180513 0.597312838611449 -0.20566000816314922 0.6324802361658362 0.6224842588591633
-7.455934845172521 -0.26768059698412877 0.4994478299196069 -0.6782213258488984 -0.7004370774647083 -0.5160961008667257 0.5547578817354932 0.24339735397559945
-1.0889414959255115 0.5664205097969295 0.9765523570447344 0.23493104699903783 0.19533066782109892 -1.0439960260389591 -0.25427653406307804 0.17862983601315569
0.8865327293573473 0.6508920815560706 -0.8826279129723295 -0.33012285860597274 -0.01905949404442281 0.23884452257812994 0.026616048526368043 -1.9939356924401852
0.08158724836476854 -0.004979087935442786 -0.4892595633000702 0.10188311403559558 -0.2745010857268407 0.8750783179599304 -0.4302356002379757 -0.29299538707174383
-0.628393961479084 0.11603155408424282 -3.346899723503211 0.0
00000000: debe f442 b242 f7bf f659 4fa0 2118 debf
00000010: 9d8b ce1e 8a15 c13f 525f 6deb 590b dc3f
00000020: 258f 647c f650 dc3f 6c27 7eb3 a836 e13f
00000030: 90e3 6770 32b5 c13f 2e23 1637 821c e93f
00000040: 7bed af41 3a48 ef3f fe07 83d6 9742 d23f
00000050: 08cc 1eb0 0af5 c93f 8a89 b5b2 9c16 1fc0
00000060: 50d7 8e6d c189 17c0 ca12 6bd7 a98a d6bf
00000070: 9359 c424 27de c2bf e645 9da1 db9e c3bf
00000080: dea2 da3b 9fb5 c1bf 1a6b 507d 695f bebf
00000090: 6069 4b8e 2a2f d3bf ca7b bf1a 856e 903f
000000a0: 8240 01a4 ced3 f03f d6d3 4218 7395 c4bf
000000b0: fb9e 1a38 42a1 e33f 9c82 8c01 c68b ac3f
000000c0: d452 5a9e 2e87 b13f 75a4 1b90 0b33 e43f
000000d0: 80c2 78b4 08d5 da3f 6181 89a3 5e90 f63f
000000e0: ae3a 000c 6b19 923f 86d3 cacc a1a2 d93f
000000f0: 7a9a b26d 926b ee3f eb9c fa45 f4da e83f
00000100: 65c1 8164 3d5b e43f f8cb b47d 23fd 1dc0
00000110: c2e2 b65d 88f5 ffbf 899c 8f1d 7395 c4bf
00000120: d187 3b07 856e 903f 1359 8995 11cd bf3f
00000130: 260a 4948 b6ba f13f 6626 5c8f 8708 f53f
00000140: af4d 3825 fab9 ecbf 78f6 177f ffbd f1bf
00000150: 9224 b539 c326 efbf e734 4483 93f0 ddbf
00000160: 4461 9d37 726a eabf b069 88a6 1f64 0040
00000170: 1368 b23a 0235 e13f 574b df61 11db b8bf
00000180: 369a 03ea b115 edbf 55a5 56bb 43be c33f
00000190: e243 6b70 191a e43f 662a 8ed1 c5ca d83f
000001a0: 367a 6a92 b039 e9bf 1a78 4e2f df14 e0bf
000001b0: 7a81 0de7 5652 bebf 986a 6f02 05cc eebf
000001c0: 88f1 f2b2 0d71 cebf 4b95 92d4 4371 01c0
000001d0: 4ce2 139e 971b e13f 3453 5deb 02ab f4bf
000001e0: f426 c7c1 e1b1 ef3f 0c44 8e74 6660 eabf
000001f0: 8b5f eddb 4c64 ddbf 97f8 0725 1c57 c03f
00000200: 7422 342b 8817 e4bf c10f b78c f2db bdbf
00000210: 78bd 2a08 f0f3 84bf 529b 23fe 8d57 c23f
00000220: 41a9 c33d c128 e0bf 507b 927d 5a26 d8bf
00000230: 85e2 8736 3f90 c4bf 0440 c97f abbb ebbf
00000240: c025 74d3 f023 a6bf a4cb a1d9 b087 f4bf
00000250: d6e0 c358 eee2 d73f 0ac5 63e5 f9ce efbf
00000260: 2a46 36a6 7a88 b53f e49d dfe5 050a f2bf
00000270: 4258 4a6d 8446 d1bf c695 4edc 566b c0bf
00000280: c38b 86fc 29b4 ce3f 5eea 0b4b 5d0e d83f
00000290: f4db 568e c4aa db3f 3aad c176 0e4b f43f
000002a0: ae25 6ad0 2f1d e33f e0f1 9330 1153 cabf
000002b0: 1e5b 3631 473d e43f 9e65 c21b 64eb e33f
000002c0: c07d 8495 e0d2 1dc0 8984 74cc ad21 d1bf
000002d0: 4206 e407 f4f6 df3f 9d10 bf35 fdb3 e5bf
000002e0: 57bc 9304 fb69 e6bf 401a 5af8 db83 e0bf
000002f0: da11 e899 93c0 e13f 930a a1fd a427 cf3f
00000300: 441e 04eb 4d6c f1bf 1491 abe7 1d20 e23f
00000310: dbd7 8aba ea3f ef3f 1a84 d675 3812 ce3f
00000320: 5a46 1967 9800 c93f 57dc 4f2d 35b4 f0bf
00000330: ce3b 7c15 1146 d0bf a617 e2ab 57dd c63f
00000340: b48c ede2 795e ec3f 2c47 70a1 1bd4 e43f
00000350: ab17 98e4 7c3e ecbf d7fa 57a0 bb20 d5bf
00000360: 307b 65fe 5484 93bf 70a1 a612 7592 ce3f
00000370: 8ac4 e0c7 3c41 9b3f 2eb9 d51c 29e7 ffbf
00000380: bb4f 7fe3 e6e2 b43f 10d1 8bbd f364 74bf
00000390: 3f42 e857 0750 dfbf 602a cc02 0315 ba3f
000003a0: 1173 7a00 6d91 d1bf 6e73 a23e a400 ec3f
000003b0: d435 26e6 fa88 dbbf 2f87 56b9 6fc0 d2bf
000003c0: 41cf 31a7 cd1b e4bf 788b 1872 3eb4 bd3f
000003d0: 7b80 bb5c 73c6 0ac0 0000 0000 0000 0000
